checkpoint.pth (torch, 41849 bytes, 6 tensors)

SeqLayer.0.weight f4 [128, 8]
-0.07239123 0.5105933 -0.7706309 -0.30493653 0.5119884 0.26542974 -0.109578796 0.5215355
0.4017301 -0.07848471 -0.03436601 0.555727 -0.14498116 -0.99933606 -0.21964094 0.29552338
-0.1705854 -0.22911099 0.32851332 1.2772298 0.6131242 0.833564 -0.03637589 0.48909086
-0.1808386 -2.1891925 -0.06370548 -1.2422194 -0.35550964 -0.16236539 -0.20921367 0.34596914
-0.50928843 -0.6112797 -0.15333322 -0.48559296 0.3272568 0.41117188 0.2204942 0.30113855
0.22534844 0.020625852 -0.144646 -0.23573576 -1.0941014 -0.27267468 0.28981993 0.08133888
-0.17569582 0.2778463 0.35628387 1.4751421 0.1294488 -0.1302465 0.53412545 0.029177694
-0.0043667085 -1.2168797 -0.18163459 -1.0282502 0.46664077 0.37063485 0.049722888 0.10121954
0.055100966 -0.76945806 0.32906795 -0.56302816 0.5120411 0.45753884 -0.54315317 -0.53336614
0.09981292 0.4912942 0.5443575 0.64696944 -0.3796557 -0.781573 -0.002713056 -0.24841104
-0.07004242 0.7566801 0.8373889 -1.2308624 0.10010555 -0.3131892 -0.034506388 -0.36020902
0.42166007 -0.5891937 -0.31252673 -0.6886208 0.45622385 0.26223996 -0.027316501 -0.73756945
-0.41327342 -0.42678982 -0.3972755 -0.14365776 0.47370145 0.510024 0.08844863 -0.053129707
-0.46803048 -0.07748568 -0.96390945 0.3401997 0.33995384 -0.14392239 0.011984459 0.32030517
-0.27050886 0.7017266 0.8240354 -1.3678218 -0.1749517 -0.1310796 0.028621515 0.06515187
0.25988838 -0.15824726 -0.27335867 -0.003449315 -0.15552388 -0.8206623 -0.16056564 0.34036878
0.04855347 -0.09841709 -0.10554591 -0.21317047 -0.690089 0.07686097 0.38615412 -0.063043706
0.28978556 -0.04718559 -0.008382266 -0.005084292 0.8087728 0.7830889 0.3858178 0.018572947
-0.16810802 0.16094187 -0.30552134 -0.059993643 -0.1511053 -0.5063507 -0.637655 -0.8399338
0.44703013 -0.75123733 0.71058065 -0.29181895 -0.08830863 -0.40346056 0.08251828 0.042781185
-0.040388033 0.42820254 -0.65830064 -1.302202 0.86336106 0.26707694 -0.20170666 0.3182987
-0.29708815 -0.21620047 0.35301363 0.19222504 0.42146397 0.03339361 -0.1595273 0.49846148
-0.020265285 -0.5423522 -0.07181876 -0.64352995 -0.21210931 -0.077840164 0.26379108 0.0833756
0.4464501 0.33036768 0.0747349 -0.3865946 -0.2186725 -0.26043728 -0.016136672 0.1937838
-0.79922104 -0.26875347 -1.20506 -0.75577116 0.042920165 -0.120275356 0.11233694 0.13476259
-0.022336025 0.5445575 -0.6292935 -0.8481845 0.68329525 0.46261662 -0.18308556 0.40766385
0.4694267 -0.7010672 0.40397987 -0.38003162 0.10159274 -0.32853973 0.030485077 0.18822353
0.10969162 -0.8588958 -0.2846812 -0.9332648 0.723777 0.71344316 0.2597749 0.09230428
-0.5143595 -0.009458569 -2.1848133 0.20984362 -0.35269645 -0.023595741 -0.19096887 0.122779705
0.34150752 0.6441151 0.5137351 -0.6793731 0.27261218 -0.8824739 -0.3265448 0.34528592
0.3221925 0.02887763 -0.56048065 0.66066337 -0.299491 -0.54854786 0.503251 0.123944305
-0.6853606 -1.1479096 -0.8134568 -0.31985965 0.48539966 -0.013277947 0.18604013 0.0006353962
00000000: da41 94bd 3eb6 023f 1148 45bf a420 9cbe
00000010: ac11 033f 68e6 873e d96a e0bd 5a83 053f
00000020: 91af cd3e 97bc a0bd 60c3 0cbd 2044 0e3f
00000030: f175 14be 7dd4 7fbf 8ee9 60be d74e 973e
00000040: f0ad 2ebe 129c 6abe e632 a83e 447c a33f
00000050: b5f5 1c3f 7364 553f e3fe 14bd 1e6a fa3e
00000060: c12d 39be bb1b 0cc0 0578 82bd 0c01 9fbf
00000070: 5c05 b6be 1d43 26be 1c3c 56be de22 b13e
00000080: ba60 02bf d47c 1cbf 6203 1dbe a49f f8be
00000090: 348e a73e 1f85 d23e 3bc9 613e d52e 9a3e
000000a0: bec1 663e 8cf7 a83c 151e 14be b764 71be
000000b0: 840b 8cbf 049c 8bbe 4763 943e 0095 a63d
000000c0: 9be9 33be df41 8e3e d76a b63e 75d1 bc3f
000000d0: 3a8e 043e 575f 05be 72bc 083f 0f06 ef3c
000000e0: 9b16 8fbb b7c2 9bbf 6bfe 39be b49d 83bf
000000f0: 8aeb ee3e dac3 bd3e 3aaa 4b3d 314c cf3d
00000100: 8db1 613d 34fb 44bf 987b a83e 9d22 10bf
00000110: 2015 033f 8842 ea3e 160c 0bbf af8a 08bf
00000120: b76a cc3d ea8a fb3e 035b 0b3f ca9f 253f
00000130: 3b62 c2be 2b15 48bf 87cd 31bb 775f 7ebe
00000140: 6672 8fbd c9b5 413f 1e5f 563f e68c 9dbf
00000150: 2304 cd3d 565a a0be 9256 0dbd 516d b8be
00000160: d4e3 d73e 66d5 16bf 8103 a0be 7449 30bf
00000170: 2c96 e93e 5144 863e dbc6 dfbc 5ad1 3cbf
00000180: 9398 d3be 3284 dabe b267 cbbe 051b 13be
00000190: ff88 f23e ef90 023f 8e24 b53d 899e 59bd
000001a0: b1a1 efbe d0b0 9ebd c5c2 76bf a82e ae3e
000001b0: 6e0e ae3e 6460 13be 775a 443c 0aff a33e
000001c0: 2380 8abe 5ba4 333f fcf3 523f c914 afbf
000001d0: 8a26 33be bb39 06be ab77 ea3c 586e 853d
000001e0: 1710 853e 920b 22be abf5 8bbe e70d 62bb
000001f0: a741 1fbe ed16 52bf 526b 24be d144 ae3e
00000200: 01e0 463d e68e c9bd 7428 d8bd 5c49 5abe
00000210: aca9 30bf 4969 9d3d feb5 c53e 0f1d 81bd
00000220: c65e 943e ad45 41bd c655 09bc 229a a6bb
00000230: bc0b 4f3f 8478 483f e989 c53e 4b26 983c
00000240: 8224 2cbe f2cd 243e 4b6d 9cbe e5bb 75bd
00000250: 59bb 1abe 33a0 01bf 5c3d 23bf e705 57bf
00000260: 22e1 e43e 1751 40bf 9de8 353f 4b69 95be
00000270: 28db b4bd 6292 cebe 58ff a83d 533b 2f3d
00000280: ec6d 25bd 5d3d db3e 6486 28bf 8eae a6bf
00000290: 3b05 5d3f 4fbe 883e 318c 4ebe 0cf8 a23e
000002a0: f01b 98be a863 5dbe 34be b43e a4d6 443e
000002b0: 20ca d73e bdc7 083d 205b 23be 5836 ff3e
000002c0: 6203 a6bc 98d7 0abf b715 93bd 61be 24bf
000002d0: 2f33 59be aa6a 9fbd a00f 873e d4c0 aa3d
000002e0: 1c95 e43e f425 a93e 9c0e 993d baef c5be
000002f0: afeb 5fbe 0958 85be 0e31 84bc 436f 463e
00000300: c099 4cbf 0e9a 89be 683f 9abf 387a 41bf
00000310: 0ecd 2f3d ed52 f6bd e910 e63d 34ff 093e
00000320: 0afa b6bc 1f68 0b3f 6119 21bf 9f22 59bf
00000330: 70ec 2e3f 16dc ec3e c87a 3bbe 51b9 d03e
00000340: b258 f03e 2479 33bf 73d6 ce3e 8193 c2be
00000350: db0f d03d 5c36 a8be d7bb f93c abbd 403e
00000360: 00a6 e03d 98e0 5bbf bcc1 91be 71ea 6ebf
00000370: 7349 393f 36a4 363f 3701 853e 070a bd3d
00000380: 10ad 03bf 1df8 1abc fbd3 0bc0 3fe1 563e
00000390: a194 b4be db4b c1bc 588d 43be ed73 fb3d
000003a0: 13da ae3e bae4 243f 2584 033f 65eb 2dbf
000003b0: d393 8b3e cfe9 61bf e130 a7be 51c9 b03e
000003c0: 6af6 a43e c890 ec3c a97b 0fbf 3c21 293f
000003d0: e256 99be a26d 0cbf 0fd5 003f 83d6 fd3d
000003e0: cb73 2fbf b4ee 92bf b43e 50bf a5c4 a3be
000003f0: 4e86 f83e bf8b 59bc 4e81 3e3e b890 263a

SeqLayer.0.bias f4 [128]
0.18946032 -0.33338988 -0.4494543 0.1447845 -0.2463413 -0.14986438 0.49020928 -0.15504175
0.25392702 0.23831776 0.37111118 -0.1013054 -0.4350531 -0.32934952 0.15670982 0.4123092
-0.23346369 0.07166001 0.13464983 -0.3655511 0.25150532 0.0013920516 0.08755314 -0.12543316
-0.28107437 0.23371981 -0.20416588 -0.19691937 0.061958894 0.2153743 -0.22846407 -0.28094244
0.05370459 0.30547208 0.6374584 -0.19708431 0.19058378 -0.1474613 0.2991794 0.37527364
-0.34202194 -0.20808412 0.10056478 -0.17340751 0.58659655 0.27668482 0.4301726 0.060027193
0.6757985 -0.37526143 0.3342772 0.10121573 -0.29810113 -0.13245697 0.41562992 0.40354082
0.44053528 0.013886447 0.09540563 -0.53728545 -0.0988621 0.15154806 0.21873875 -0.07328838
-0.06300152 -0.22986169 0.26171798 0.6613929 0.020009441 0.16393849 0.24820833 -0.05052861
0.11114142 -0.31189132 0.20322916 -0.020400159 -0.15453097 -0.46119687 0.22259212 0.17329736
-0.10502738 0.06471254 -0.21167693 -0.072573915 0.29675362 0.02743247 -0.05391261 -0.24092494
0.13344371 0.2558458 -0.44258878 0.2520677 -0.093169734 -0.30818236 0.018165385 -0.17414787
-0.4186823 -0.41550878 -0.18315576 0.0043464378 -0.48602012 -0.27487648 -0.033671938 -0.09199989
0.3066752 -0.24681635 -0.16948558 0.036709562 -0.24583848 0.28468394 -0.17796183 0.06190594
-0.128534 -0.13082597 0.2881217 -0.0050263247 -0.5638708 0.19137727 0.02783103 -0.30654466
0.3715494 -0.45529974 -0.077938646 -0.2065528 -0.30080315 -0.21541873 0.18412659 -0.39723587
00000000: e301 423e 14b2 aabe e01e e6be 6342 143e
00000010: e540 7cbe 0c76 19be b6fc fa3e 44c3 1ebe
00000020: b902 823e 9209 743e 4902 be3e 3579 cfbd
00000030: 48bf debe 80a0 a8be 8a78 203e 311a d33e
00000040: 1b11 6fbe 7cc2 923d a5e1 093e 8429 bbbe
00000050: 4ec5 803e 8075 b63a 104f b33d 8d71 00be
00000060: fbe8 8fbe 3f54 6f3e dc10 51be 3ba5 49be
00000070: 9cc8 7d3d 158b 5c3e 7cf2 69be b0d7 8fbe
00000080: 58f9 5b3d d666 9c3e 7930 233f 78d0 49be
00000090: 6528 433e 1800 17be 0b2e 993e de23 c03e
000000a0: 801d afbe 0114 55be e8f4 cd3d bd91 31be
000000b0: 312b 163f a2a9 8d3e 953f dc3e 13df 753d
000000c0: 2101 2d3f 4422 c0be 6226 ab3e 314a cf3d
000000d0: b6a0 98be cda2 07be 72cd d43e e79c ce3e
000000e0: d78d e13e fb83 633c 0764 c33d 8a8b 09bf
000000f0: 3678 cabd 6a2f 1b3e 0dfd 5f3e 3818 96bd
00000100: f106 81bd dd60 6bbe e6ff 853e 0c51 293f
00000110: d7ea a33c 7edf 273e 532a 7e3e 16f7 4ebd
00000120: 1d9e e33d 38b0 9fbe 4e1b 503e 3c1e a7bc
00000130: 5e3d 1ebe ff21 ecbe 30ef 633e dd74 313e
00000140: 9818 d7bd 0288 843d d6c1 58be a2a1 94bd
00000150: 17f0 973e 0fba e03c 78d3 5cbd 07b5 76be
00000160: 78a5 083e 38fe 823e ff9a e2be 040f 813e
00000170: c6cf bebd 14ca 9dbe 93cf 943c d253 32be
00000180: 875d d6be 91bd d4be 2f8d 3bbe 906c 8e3b
00000190: a1d7 f8be 9cbc 8cbe 96eb 09bd 706a bcbd
000001a0: 8804 9d3e 6dbd 7cbe a18d 2dbe c45c 163d
000001b0: 15bd 7bbe 18c2 913e a03b 36be 1591 7d3d
000001c0: 6b9e 03be 3ef7 05be b084 933e deb3 a4bb
000001d0: d659 10bf 67f8 433e e6fd e33c 6cf3 9cbe
000001e0: b93b be3e 0c1d e9be 4c9e 9fbd 9482 53be
000001f0: df02 9abe ba96 5cbe ae8b 3c3e 8062 cbbe

SeqLayer.2.weight f4 [64, 128]
-0.08644264 -0.019413993 0.04712287 -0.103626214 -0.0741972 0.04505606 -0.03572803 0.019653596
-0.10722581 -0.05938317 -0.07732935 0.063132785 0.022613915 -0.08150091 -0.010632654 -0.01907944
-0.061256837 -0.056112885 -0.057165034 0.04668848 -0.072187886 -0.08877395 -0.05470468 -0.02451116
-0.0027193022 -0.0100488085 -0.04585399 -0.0630154 -0.04400489 -0.050915994 0.056552786 -0.07639377
-0.07975402 -0.06575135 -0.03586867 0.052678715 0.09554755 -0.10561735 -0.010315488 0.018325744
0.014507667 0.072838165 -0.035292592 -0.08632271 0.027271053 -0.046518702 0.022840463 -0.012181025
0.012345221 0.07637045 0.06274478 -0.08588061 -0.07738679 -0.072193 -0.07343953 0.036627427
-0.021974321 -0.08004746 -0.067852125 -0.08853246 -0.0031666022 -0.09726328 -0.103098676 -0.092067376
-0.0006035082 0.013395203 -0.08807922 0.011206573 0.046777766 -0.010068352 -0.06545549 -0.012952902
-0.03830545 0.03172674 -0.09789476 0.02393191 0.025197254 -0.06889749 0.03161606 0.061995585
-0.061795056 -0.054905683 0.052702464 -0.09352055 0.00088368787 -0.007907858 0.04298422 -0.09264619
-0.10239559 0.01527681 -0.00011982444 -0.067213275 -0.08694803 -0.099322215 -0.09259211 -0.043408744
0.034330647 -0.03619502 0.028219292 0.058793433 0.03112845 -0.1004266 0.04825748 -3.603331e-05
0.058254484 -0.098722115 0.027163213 0.043938182 -0.10085836 -0.038236596 0.06057241 -0.07736729
0.012731501 0.020729745 -0.01292477 0.089524284 0.047117367 0.050818764 -0.0034781483 0.04814711
-0.13073203 -0.062054712 -0.03145779 -0.047126006 0.052438457 0.027372742 0.033408232 0.06200362
-0.09660967 -0.01981592 -0.014490631 -0.008815411 0.014088753 -0.065490134 -0.038665522 0.04404381
-0.048531257 -0.07056851 0.02778706 0.050895143 -0.036542762 -0.030219406 -0.09116022 -0.083498076
0.038397424 -0.069344744 0.0595716 -0.08565809 -0.043416638 -0.027966063 0.016668614 0.042373132
0.05070602 0.007846617 -0.055873122 -0.09463861 -0.098047204 -0.026857521 0.07916562 -0.030058766
-0.019149845 -0.08917138 -0.0078080497 0.03152074 -0.099700846 -0.09614468 0.03330501 0.0053595123
-0.030159358 -0.007470963 -0.028186593 -0.061780356 -0.1130032 0.04910126 -0.023391515 -0.04386294
-0.056106504 -0.054713972 -0.05557625 -0.08459971 0.055927932 0.005652965 -0.058553886 -0.0544415
0.020331016 -0.039557017 0.00884863 0.0037687377 -0.064349316 -0.006690153 -0.019334584 0.0475849
-0.060572352 -0.036719456 0.06547787 -0.097953066 -0.018785136 0.0549167 -0.04866002 0.05519683
0.051755525 0.07317081 -0.039301693 0.07234654 -0.045815274 -0.047615983 0.0027348034 -0.012740549
0.024395112 0.06851282 -0.051653236 0.03736651 0.00042002957 0.014941245 0.010034231 -0.033063423
-0.07961567 0.041857332 -0.072035074 0.040626228 -0.0975304 -0.03153097 -0.028610598 0.005365037
-0.009035505 -0.0028811155 -0.040960565 0.0062843263 0.05501985 -0.071156725 -0.0048257187 -0.056315277
0.050674632 0.080457374 -0.010788914 -0.06224695 -0.069267295 0.03274042 -0.014951025 0.058673408
0.019305086 0.04816551 0.05462825 -0.07699144 -0.0036455933 -0.06787324 0.019823551 -0.014970568
-0.022347374 -0.0853703 -0.08723301 0.009148971 0.0050551626 -0.016947348 0.029476093 -0.05108467
00000000: d708 b1bd 180a 9fbc e903 413d fb39 d4bd
00000010: b4f4 97bd b48c 383d 8e57 12bd 9400 a13c
00000020: 3599 dbbd c43b 73bd da5e 9ebd c34b 813d
00000030: d140 b93c f3e9 a6bd 9534 2ebc 7c4c 9cbc
00000040: 73e8 7abd a0d6 65bd e225 6abd 6b3c 3f3d
00000050: 3ed7 93bd 1ecf b5bd 0412 60bd a1cb c8bc
00000060: 5236 32bb c2a3 24bc 65d1 3bbd 380e 81bd
00000070: 793e 34bd 4a8d 50bd e5a3 673d 5674 9cbd
00000080: 1356 a3bd a5a8 86bd 07eb 12bd a3c5 573d
00000090: 6fae c33d e94d d8bd 4b02 29bc df1f 963c
000000a0: 91b1 6d3c 2d2c 953d f78e 10bd f6c9 b0bd
000000b0: 8b67 df3c 658a 3ebd ec1b bb3c ec92 47bc
000000c0: 9c43 4a3c 1c68 9c3d 5680 803d 2ce2 afbd
000000d0: f77c 9ebd ecd9 93bd 7767 96bd a406 163d
000000e0: 7e03 b4bc ecef a3bd 0ef6 8abd 8250 b5bd
000000f0: c586 4fbb f831 c7bd 6625 d3bd d28d bcbd
00000100: c034 1eba 8e77 5b3c e162 b4bd c69b 373c
00000110: 0b9a 3f3d bbf5 24bc 870d 86bd 6938 54bc
00000120: 2de6 1cbd e6f3 013d 0c7d c8bd da0c c43c
00000130: 796a ce3c 211a 8dbd d77f 013d 15ef 7d3d
00000140: d01c 7dbd c8e4 60bd 8ade 573d b487 bfbd
00000150: 4aa7 673a f68f 01bc 3910 303d 49bd bdbd
00000160: c7b4 d1bd 964b 7a3c 424a fbb8 1da7 89bd
00000170: cf11 b2bd 7269 cbbd efa0 bdbd 5ecd 31bd
00000180: 4b9e 0c3d 3b41 14bd 252c e73c 62d1 703d
00000190: 1701 ff3c 76ac cdbd a3a9 453d 7922 17b8
000001a0: 419c 6e3d d22e cabd 6385 de3c 86f8 333d
000001b0: d48e cebd fa9d 1cbd c61a 783d be72 9ebd
000001c0: c997 503c 6dd1 a93c 6ac2 53bc 8258 b73d
000001d0: 24fe 403d 5627 503d a5f1 63bb e735 453d
000001e0: 9ede 05be 152d 7ebd e2d9 00bd 3307 41bd
000001f0: b5c9 563d cd3c e03c 12d7 083d 82f7 7d3d
00000200: 4adb c5bd ff54 a2bc 1d6a 6dbc 836e 10bc
00000210: 83d4 663c b11f 86bd bd5f 1ebd 4867 343d
00000220: b6c8 46bd 3986 90bd b0a1 e33c 6d77 503d
00000230: ddad 15bd b08e f7bc 36b2 babd 0a01 abbd
00000240: 9e46 1d3d 9e04 8ebd 5a01 743d 826d afbd
00000250: a5d5 31bd 1619 e5bc 9e8c 883c 738f 2d3d
00000260: 1eb1 4f3d 198f 003c 37db 64bd e3d1 c1bd
00000270: f9cc c8bd 4e04 dcbc 9621 a23d cd3d f6bc
00000280: 23e0 9cbc 7c9f b6bd abda ffbb e41b 013d
00000290: f52f ccbd 81e7 c4bd d66a 083d d99e af3b
000002a0: c210 f7bc fbce f4bb 92e7 e6bc 660d 7dbd
000002b0: 396e e7bd 671e 493d 909f bfbc a0a9 33bd
000002c0: efcf 65bd c21b 60bd eca3 63bd 9d42 adbd
000002d0: b014 653d 823c b93b 33d6 6fbd 0dfe 5ebd
000002e0: 3b8d a63c 8a06 22bd d8f9 103c edfc 763b
000002f0: 93c9 83bd 1239 dbbb 9063 9ebc 62e8 423d
00000300: b71a 78bd 2467 16bd 4319 863d 9e9b c8bd
00000310: 49e3 99bc 55f0 603d bb4f 47bd 1216 623d
00000320: 9afd 533d 94da 953d d0fa 20bd 6c2a 943d
00000330: cca8 3bbd fa08 43bd 633a 333b bcbd 50bc
00000340: 42d8 c73c 7350 8c3d 5892 53bd a00d 193d
00000350: 6a37 dc39 20cc 743c 9d66 243c 836d 07bd
00000360: 8a0d a3bd 9872 2b3d 2087 93bd b067 263d
00000370: 05be c7bd 9e26 01bd c660 eabc 31cd af3b
00000380: a809 14bc 19d1 3cbb 44c6 27bd c0ec cd3b
00000390: 7f5c 613d 9eba 91bd 1021 9ebb d9aa 66bd
000003a0: 3490 4f3d d6c6 a43d fcc3 30bc a8f6 7ebd
000003b0: 03dc 8dbd d21a 063d 25f5 74bc 8753 703d
000003c0: b325 9e3c 3349 453d dfc1 5f3d b0ad 9dbd
000003d0: e8ea 6ebb 2001 8bbd 0065 a23c 1d47 75bc
000003e0: d711 b7bc a0d6 aebd 38a7 b2bd 91e5 153c
000003f0: c7a5 a53b 2ad5 8abc d977 f13c 293e 51bd

SeqLayer.2.bias f4 [64]
0.03999222 -0.11761596 -0.15486732 -0.15274136 -0.108293295 -0.204391 -0.11780535 -0.051126484
-0.020225674 0.17645822 0.09824491 -0.033144254 0.26266345 -0.45012197 0.09007158 0.17834486
-0.10923938 0.09979477 0.019068208 0.038138386 -0.0011537683 -0.0090509355 -0.027123654 -0.07374373
-0.05601612 -0.16300648 0.24633157 -0.026761534 0.18337275 0.24217838 0.21014869 0.65934616
-0.06291185 -0.012914647 -0.11684709 0.28753826 -0.02103397 -0.065144666 -0.10211793 -0.038864344
-0.13338827 -0.13970754 -0.09369829 -0.103139564 -0.120526314 -0.008674797 0.2555047 0.04308289
-0.0043950127 -0.0515601 0.009159633 -0.094135255 0.129002 -0.025787475 -0.13737203 -0.002046895
-0.007084566 0.2818672 0.17257605 0.41428027 -0.15282495 -0.042912163 0.590787 0.453615
00000000: e2ce 233d a3e0 f0bd 8a95 1ebe 3b68 1cbe
00000010: e0c8 ddbd e04b 51be ee43 f1bd 016a 51bd
00000020: 50b0 a5bc 77b1 343e a134 c93d 45c2 07bd
00000030: d37b 863e 6376 e6be 7377 b83d 09a0 363e
00000040: e5b8 dfbd 3361 cc3d ee34 9c3c ff36 1c3d
00000050: 0a3a 97ba 604a 14bc 6d32 debc f406 97bd
00000060: 2971 65bd 2ceb 26be 583e 7c3e 013b dbbc
00000070: 11c6 3b3e 9cfd 773e 3831 573e e9ca 283f
00000080: eed7 80bd f597 53bc 874d efbd 3738 933e
00000090: 6f4f acbc 916a 85bd 3523 d1bd 3830 1fbd
000000a0: ef96 08be 7e0f 0fbe e4e4 bfbd d63a d3bd
000000b0: 80d6 f6bd bc20 0ebc 83d1 823e af77 303d
000000c0: 0a04 90bb af30 53bd 4912 163c fcc9 c0bd
000000d0: 1a19 043e 4140 d3bc 41ab 0cbe 3325 06bb
000000e0: a625 e8bb e650 903e c7b7 303e 8b1c d43e
000000f0: 257e 1cbe aac4 2fbd d13d 173f 3a40 e83e

SeqLayer.4.weight f4 [4, 64]
0.08994712 0.0825294 -0.46099752 -0.58327574 -0.5305338 -0.41882128 -0.41760823 -0.047731727
-0.17262767 -0.4645529 -0.6958682 -0.35838082 -0.10201139 -0.3649571 -0.98078156 -1.2003653
-0.3405484 -0.6202574 -0.3035635 -0.42723924 -0.50693494 0.23565216 -0.14318074 -0.049493164
-0.37825164 -0.7197044 -1.2927434 1.8358228 0.9912651 -0.13248593 1.2365189 1.1832296
0.04810881 0.64673424 0.389221 1.1754 -0.26342037 -0.50952876 -0.39961907 0.02376835
-0.3345278 -0.20411 -0.04244646 -0.37374946 -1.1573726 0.0015949707 -0.698669 -0.4024486
-0.008175265 -0.33767083 0.018765736 -0.42800316 -0.60574263 -0.57878596 -0.41905373 -0.27332962
-0.79714763 2.1892464 0.99623775 1.8994344 0.49540445 -0.48252866 1.3252927 1.9841045
0.05528581 0.04895169 -0.29228637 -0.4766304 -0.31328925 -0.32157165 -0.4893948 -0.029754257
-0.5763618 -0.601639 -0.5036893 -0.327825 -0.37305832 -0.5990947 -0.6326361 -0.76685244
-0.2623466 -0.49888498 -0.45436943 -0.8641701 -0.3890409 -0.09455976 -0.605552 -0.051114574
-0.533789 -0.6360115 -1.1454842 2.2046056 0.73133194 -0.15905288 1.4215661 1.0368742
-0.0075795306 0.48444945 0.1765459 1.5608621 0.110634685 -0.82327926 -0.47976124 0.07682975
-0.39051795 -0.37844202 0.049587835 -0.35295942 -0.42899185 -0.011214839 -0.93823206 -0.475047
-0.026002634 -0.3853179 -0.027190426 -0.3392386 -0.9969041 -0.6795803 -0.32949594 -0.5069393
-0.38884047 1.4741597 0.747051 1.5686407 0.8890546 -0.7688724 1.894408 2.1352262
0.03775407 -0.05535115 -0.54387707 -0.7483401 -0.68860835 -0.40453702 -0.5359779 0.09714331
-0.6585134 -0.2655254 -0.7446896 -0.6543366 0.29391333 -0.74836 -0.47685054 -0.5771541
-0.7573884 -0.1811498 -0.40187383 -0.52753484 -0.323367 -0.46965662 -0.7115489 0.09010936
-0.37013805 -0.52281547 -0.23074707 0.35737738 0.56436527 0.40362042 1.225171 1.4834632
0.04170931 -0.08720537 1.327971 1.5280739 0.5345501 -0.9870563 -0.5578732 0.019012436
-0.39807537 -0.47862342 0.09197631 -0.52249247 -0.38917798 0.04406991 0.73408717 -0.47479108
0.107176244 -0.43925884 0.08283502 -0.6278676 -1.2983824 -0.41129526 -0.39448848 -0.37199178
-0.68216634 1.6413807 0.49511728 1.3040824 -0.33921582 -0.8162652 1.522664 2.0327766
0.077947624 0.001517845 -0.54210943 -0.3117113 -0.50124115 -0.45773885 -0.37726873 -0.07744934
-0.44619852 -0.60857505 -0.95347685 -0.6351603 -0.08084894 -0.54625964 -0.08376906 -0.7984154
-0.764822 -0.46074837 -0.50275135 -0.10103579 -0.5669579 0.62472826 -0.26443502 -0.057564214
-0.48954594 -0.7477759 -1.302656 1.3848549 1.0637326 -0.51628417 1.0953465 1.5574572
0.040711835 0.5987555 0.18761289 0.86998314 0.39138705 -0.67303115 -0.3902589 -0.065152094
-0.42238414 -0.57935816 0.072494574 -0.49484628 -0.35756573 0.101528965 -0.0076280115 -0.34691063
0.11837737 -0.5423662 0.10390416 -0.6288948 -0.11475469 -0.32689664 -0.39410773 -0.43873835
-1.0384206 2.1394255 0.9014887 1.7209189 0.36457384 -0.43620616 0.9080568 1.97077
00000000: 3236 b83d 2d05 a93d de07 ecbe 8f51 15bf
00000010: 10d1 07bf be6f d6be bfd0 d5be 5882 43bd
00000020: 4fc5 30be e1d9 edbe 6b24 32bf b17d b7be
00000030: 59eb d0bd a8db babe 8014 7bbf 92a5 99bf
00000040: 5c5c aebe 30c9 1ebf ad6c 9bbe 1abf dabe
00000050: 7dc6 01bf cd4e 713e f99d 12be 58b9 4abd
00000060: 33aa c1be 8c3e 38bf 9e78 a5bf 3efc ea3f
00000070: 8dc3 7d3f 64aa 07be 4046 9e3f 1174 973f
00000080: be0d 453d 6090 253f fa47 c73e 8273 963f
00000090: 09df 86be 7a70 02bf df9a ccbe d8b5 c23c
000000a0: 3a47 abbe 3602 51be 57dc 2dbd 175c bfbe
000000b0: c924 94bf 560e d13a f9db 32bf be0d cebe
000000c0: 8cf1 05bc 31e3 acbe 9aba 993c 3b23 dbbe
000000d0: f311 1bbf 512b 14bf 368e d6be dcf1 8bbe
000000e0: de11 4cbf 9d1c 0c40 7009 7f3f ab20 f33f
000000f0: a7a5 fd3e ff0d f7be 31a3 a93f 23f7 fd3f
00000100: 6073 623d 9181 483d 8fa6 95be e608 f4be
00000110: 7367 a0be 0aa5 a4be f591 fabe 33bf f3bc
00000120: 728c 13bf 0305 1abf c8f1 00bf aed8 a7be
00000130: 8001 bfbe 455e 19bf 70f4 21bf 7150 44bf
00000140: 4b52 86be da6d ffbe 1ca3 e8be 403a 5dbf
00000150: 5e30 c7be 8ca8 c1bd 7505 1bbf 845d 51bd
00000160: 65a6 08bf a6d1 22bf 3a9f 92bf 4218 0d40
00000170: 9238 3b3f c2de 22be e1f5 b53f 4bb8 843f
00000180: b65d f8bb c209 f83e 73c8 343e 54ca c73f
00000190: 7094 e23d 6ec2 52bf 44a3 f5be ea58 9d3d
000001a0: f8f1 c7be 27c3 c1be 9d1c 4b3d 19b7 b4be
000001b0: d2a4 dbbe 72be 37bc fa2f 70bf 5c39 f3be
000001c0: 7a03 d5bc 6348 c5be 75be debc afb0 adbe
000001d0: 1b35 7fbf f9f8 2dbf b1b3 a8be c6c6 01bf
000001e0: 1916 c7be 44b1 bc3f bc3e 3f3f 38c9 c83f
000001f0: 1599 633f d2d4 44bf f67b f23f 8ca7 0840
00000200: 03a4 1a3d e3b7 62bd 873b 0bbf 3793 3fbf
00000210: a348 30bf 7a1f cfbe d935 09bf 12f3 c63d
00000220: 5694 28bf f2f2 87be faa3 3ebf 9a82 27bf
00000230: cf7b 963e 8594 3fbf c125 f4be 5fc0 13bf
00000240: 35e4 41bf 557f 39be 68c2 cdbe 860c 07bf
00000250: 5c90 a5be d576 f0be 1228 36bf 428b b83d
00000260: bc82 bdbe 3cd7 05bf f648 6cbe 2bfa b63e
00000270: 3e7a 103f 56a7 ce3e 67d2 9c3f 1fe2 bd3f
00000280: 62d7 2a3d bb98 b2bd f4fa a93f ed97 c33f
00000290: 46d8 083f b9af 7cbf c7d0 0ebf f8bf 9b3c
000002a0: 89d0 cbbe 210e f5be 135e bc3d 11c2 05bf
000002b0: 5642 c7be a682 343d 23ed 3b3f d117 f3be
000002c0: 387f db3d 89e6 e0be 68a5 a93d eebb 20bf
000002d0: 6531 a6bf 4b95 d2be 65fa c9be b575 bebe
000002e0: 74a2 2ebf c318 d23f 0380 fd3e 2cec a63f
000002f0: b2ad adbe c2f6 50bf a7e6 c23f 0319 0240
00000300: 01a3 9f3d 6df2 c63a afc7 0abf a098 9fbe
00000310: 5751 00bf bf5c eabe 5e29 c1be c29d 9ebd
00000320: 2274 e4be 93cb 1bbf 0f17 74bf de99 22bf
00000330: 2194 a5bd acd7 0bbf 1d8f abbd f464 4cbf
00000340: 60cb 43bf 36e7 ebbe 50b4 00bf daeb cebd
00000350: 2724 11bf 31ee 1f3f 0764 87be 74c8 6bbd
00000360: c4a5 fabe 3e6e 3fbf 6fbd a6bf ed42 b13f
00000370: 6428 883f 332b 04bf 5034 8c3f c25a c73f
00000380: 74c1 263d 0a48 193f 981d 403e 37b7 5e3f
00000390: e263 c83e c54b 2cbf 04d0 c7be 766e 85bd
000003a0: bc42 d8be d150 14bf 0978 943d 7e5c fdbe
000003b0: db12 b7be 6bee cf3d 66f4 f9bb 459e b1be
000003c0: d66f f23d 83d8 0abf b4cb d43d 40ff 20bf
000003d0: 8204 ebbd ff5e a7be 7dc8 c9be 50a2 e0be
000003e0: f7ea 84bf 59ec 0840 f7c7 663f 1247 dc3f
000003f0: 6ca9 ba3e 6a56 dfbe 6976 683f 3142 fc3f

SeqLayer.4.bias f4 [4]
0.27079368 0.093627386 0.72163785 0.11375114
00000000: 78a5 8a3e b7bf bf3d 42bd 383f 5cf6 e83d
